model/model.pth (torch, 8000 bytes, 4 tensors)

linear1.weight f4 [256, 1]
0	0xbe279bf8	-0.16368091
1	0x3e68ef7c	0.22747606
2	0xbf79da20	-0.9759846
3	0xbe8c2d03	-0.2737809
4	0xbf47f49c	-0.7810762
5	0xbf55b172	-0.83473885
6	0xbe7ba58e	-0.24574873
7	0xbf183820	-0.5946064
8	0x3c981e80	0.018569231
9	0xbf2773fa	-0.6541134
10	0x3e7d7a4e	0.24753687
11	0x3ef2e15d	0.47437564
12	0xbf2eed90	-0.6833124
13	0xbe629509	-0.22127165
14	0x3ee3ece5	0.44516674
15	0x3f23d340	0.63994217
16	0x3eef3da7	0.46726725
17	0x3ebfb9ad	0.37446347
18	0x3f0e00c2	0.55469906
19	0x3e8dca1d	0.27693263
20	0x3f0d2694	0.5513699
21	0xbd6bad76	-0.057538472
22	0xbe1a5548	-0.15071595
23	0xbee73f44	-0.45165455
24	0xbdcf365e	-0.101177916
25	0xbf63a496	-0.88923013
26	0x3f559359	0.8342796
27	0x3f130748	0.57432985
28	0x3f5d1cea	0.86372244
29	0xbec59c4d	-0.3859581
30	0x3f720a87	0.94547313
31	0xbf306236	-0.6889986
32	0xbe1c41dd	-0.152595
33	0xbf77da24	-0.9681723
34	0x3ded6750	0.11591971
35	0xbeafcba7	-0.34335062
36	0x3ef1d167	0.47230074
37	0xbdcdf518	-0.100565135
38	0x3ee9b98c	0.45649374
39	0xbf6c9fc2	-0.9243127
40	0xbdcdd220	-0.10049844
41	0x3e4f86c6	0.20266256
42	0xbf28662c	-0.657809
43	0x3f4861ce	0.7827424
44	0xbbf2da00	-0.0074112415
45	0x3f08c570	0.53426266
46	0xbe42d658	-0.19027078
47	0x3f6ab879	0.9168773
48	0xbf779e0e	-0.9672555
49	0x3f36dc4e	0.7142991
50	0xbf1c5382	-0.6106492
51	0xbf5e2f7a	-0.86791193
52	0xbf5d68cc	-0.8648803
53	0xbf1fa31e	-0.6235827
54	0x3f4b2b8b	0.79363316
55	0xbf511bee	-0.8168324
56	0xbf564e20	-0.8371296
57	0xbf2a5df3	-0.66549605
58	0xbf690278	-0.9101939
59	0x3f5365f6	0.82577455
60	0xbc75e880	-0.015009046
61	0x3d8f0a0a	0.06984337
62	0xbe8add1c	-0.27121818
63	0xbf49a910	-0.78773594
64	0x3f12cc26	0.57342756
65	0x3f5b1109	0.8557287
66	0x3f7a7c54	0.9784596
67	0x3f2577ea	0.646361
68	0xbf4769cc	-0.7789581
69	0x3f2bd698	0.6712432
70	0xbf6da240	-0.928257
71	0xbf248ddc	-0.6427896
72	0xbf45e816	-0.7730726
73	0x3e98e80c	0.29864538
74	0x3f70cfcf	0.9406709
75	0x3dd69489	0.104775496
76	0x3ea636f5	0.32463804
77	0xbf77cede	-0.9680003
78	0xbf6543f0	-0.8955679
79	0x3eaacf2d	0.33361188
80	0xbf574a36	-0.8409761
81	0xbd94a1e0	-0.07257438
82	0x3eda0bf4	0.42587245
83	0xbec3444c	-0.38138044
84	0xbec93c08	-0.39303613
85	0xbf1d1dd2	-0.6137363
86	0xbf153700	-0.5828705
87	0x3ead3dff	0.33836362
88	0x3f5f14df	0.8714122
89	0x3ddc0a30	0.107441306
90	0x3ef32d91	0.47495702
91	0xbd7d5ac0	-0.061854124
92	0x3f34582b	0.70447034
93	0xbf46d01c	-0.776613
94	0xbf59bf9a	-0.85057986
95	0xbe4ae7d4	-0.19814998
96	0xbf1d1cbe	-0.6137198
97	0xbf23a592	-0.63924515
98	0x3d941468	0.07230455
99	0xbed68d38	-0.41904616
100	0xbeab0ff6	-0.33410615
101	0x3cc84a40	0.024449468
102	0xbdb6f9c8	-0.08934361
103	0xbf375d8e	-0.7162713
104	0x3f3cb30e	0.73710716
105	0x3f470df9	0.77755696
106	0xbe988b00	-0.2979355
107	0x3f0e8ec2	0.5568658
108	0xbf3a5146	-0.72780263
109	0xbc932c87	-0.017965568
110	0xbe9f4420	-0.31106663
111	0xbf7879bc	-0.9706075
112	0x3f3c6b10	0.73600864
113	0x3f3c80be	0.73633945
114	0xbeef99e4	-0.46797097
115	0x3eb60712	0.3555227
116	0x3e7ff456	0.2499555
117	0x3e9df6f0	0.3085246
118	0x3e50add8	0.20378816
119	0xbe9ad11e	-0.3023767
120	0xbe9cb41c	-0.30606163
121	0x3f334ffb	0.70043916
122	0x3ea9b37a	0.33144742
123	0xbe77c688	-0.24196827
124	0xbf0beb86	-0.54656255
125	0x3f1dafa2	0.6159612
126	0x3efc804e	0.4931664
127	0x3be6efdb	0.007047636
128	0x3df4b68b	0.1194888
129	0xbef50130	-0.47852468
130	0xbf46147a	-0.77374995
131	0xbee276ac	-0.44231164
132	0x3f5f1bca	0.8715178
133	0x3ed5f660	0.41789532
134	0x3ec54bed	0.3853449
135	0xbf736fac	-0.9509227
136	0x3f31e2db	0.6948678
137	0x3f4f2775	0.8091958
138	0xbf3fad34	-0.7487366
139	0xbebcccf8	-0.3687513
140	0x3f4d94c8	0.8030515
141	0xbee6ec24	-0.45102036
142	0xbf558148	-0.8340039
143	0xbf7412f8	-0.95341444
144	0xbed1e652	-0.40996033
145	0x3edececc	0.43517148
146	0xbf20f4ae	-0.6287335
147	0x3e986e8c	0.2977184
148	0xbf598720	-0.8497181
149	0xbe6cd168	-0.23126757
150	0x3edff3fc	0.43740833
151	0xbe9bc44c	-0.304232
152	0x3eb60086	0.35547274
153	0xbefa2914	-0.48859465
154	0xbdcc9eee	-0.09991251
155	0x3ee15696	0.44011372
156	0x3f2f56ab	0.6849162
157	0x3f2de6d5	0.67930347
158	0x3f08401d	0.5322283
159	0x3f4ad784	0.792351
160	0xbee3bf30	-0.44481802
161	0xbf18ce2c	-0.59689593
162	0x3e49aa2d	0.19693823
163	0xbf30bb3e	-0.6903571
164	0xbe003ef0	-0.12524009
165	0x3f257bf2	0.6464225
166	0xbe4e0298	-0.20118177
167	0xbf40a6a8	-0.752543
168	0x3f000d22	0.5002004
169	0xbf1b483d	-0.606571
170	0xbe9115e0	-0.28337002
171	0x3f78d567	0.97200626
172	0xbd102b45	-0.035197515
173	0x3ef04ae8	0.4693215
174	0x3b74aa00	0.0037332773
175	0x3f43990f	0.76405424
176	0x3f1ffd4e	0.6249589
177	0xbef90fe6	-0.48644942
178	0xbf239d54	-0.6391194
179	0xbe39a988	-0.18131077
180	0x3e9cf263	0.30653676
181	0xbf378a80	-0.7169571
182	0xbdc5b0ff	-0.096529
183	0xbf0d0a6c	-0.5509403
184	0xbd34e0f9	-0.044159863
185	0x3e5f0d28	0.21782362
186	0x3e96efe9	0.29479912
187	0xbe51ca48	-0.2048732
188	0xbf611974	-0.87929463
189	0x3e448471	0.19191147
190	0xbf740a02	-0.9532777
191	0xbeb899e6	-0.36054915
192	0x3dbcd9f0	0.09221256
193	0x3dfc6580	0.12324047
194	0xbe6e5840	-0.23275852
195	0xbece19a8	-0.4025395
196	0x3f55aa6f	0.83463186
197	0xbe019ea0	-0.12658167
198	0xbd92b240	-0.07162905
199	0x3eb31058	0.34973407
200	0xbf23563e	-0.6380347
201	0xbf1c9514	-0.61164975
202	0x3d063e74	0.032774404
203	0xbf2daa76	-0.6783823
204	0x3f68978d	0.9085625
205	0xbe7bc5a8	-0.24587119
206	0xbe4e7260	-0.20160818
207	0x3d71a0e0	0.058991313
208	0x3e73e132	0.23816374
209	0xbe99f844	-0.30072224
210	0xbe62e853	-0.22158937
211	0x3e9e6443	0.3093587
212	0x3e2a3353	0.16621141
213	0xbf4e5bfa	-0.80609095
214	0xbe769128	-0.2407881
215	0x3e5589b0	0.20853305
216	0x3f17b90b	0.5926673
217	0x3f5dc31f	0.86625856
218	0xbf0d0ef4	-0.5510094
219	0x3ee78626	0.45219535
220	0x3f1b9775	0.6077798
221	0xbf4c9d86	-0.7992786
222	0xbd3071d6	-0.043077312
223	0x3f470d9a	0.7775513
224	0xbf07d1b8	-0.5305438
225	0xbf670f12	-0.9025737
226	0xbf11b36d	-0.56914407
227	0x3cda0400	0.026613235
228	0xbf5a2d86	-0.85225713
229	0x3f045ebc	0.51707053
230	0xbf5a93c2	-0.8538171
231	0xbca34f87	-0.019935383
232	0x3ed8f522	0.42374521
233	0xbd8f4f30	-0.06997526
234	0x3f0b643c	0.5444982
235	0xbd2c1b79	-0.042018387
236	0x3ead0e96	0.3380019
237	0xbeff7d81	-0.4990044
238	0xbf77423e	-0.9658545
239	0xbf2c5a64	-0.67325425
240	0x3f166a36	0.58755815
241	0x3ed2d35e	0.41176885
242	0x3ea2dc50	0.3180871
243	0xbf532d76	-0.8249124
244	0x3f6dfae5	0.9296096
245	0x3f415ea3	0.7553503
246	0xbf16f4ba	-0.58967173
247	0xbf339f96	-0.70165384
248	0x3e8a3339	0.26992205
249	0xbf09678c	-0.53673625
250	0x3f57ec98	0.8434539
251	0xbe86b089	-0.2630656
252	0x3f5f93dc	0.8733499
253	0x3eefa3c6	0.46804637
254	0xbeac0a24	-0.33601487
255	0xbcff7efe	-0.031188484

linear1.bias f4 [256]
0	0xbe89e650	-0.26933527
1	0x3f1b6168	0.60695505
2	0x3f403491	0.7508021
3	0x3f3053c6	0.6887783
4	0x3eb6dfe6	0.35717696
5	0xbe732d18	-0.2374767
6	0x3f0100d8	0.5039191
7	0xbd1bdb60	-0.03805101
8	0xbf54e712	-0.83165085
9	0xbf4ee25a	-0.80814135
10	0x3eb709ba	0.35749608
11	0xbf56d64a	-0.8392073
12	0xbf4417e0	-0.7659893
13	0x3f551b04	0.8324435
14	0xbf5bc7a1	-0.85851485
15	0x3e28f8d9	0.16501178
16	0x3edec639	0.43510607
17	0x3ebea3dc	0.3723439
18	0x3dd5f2f0	0.10446727
19	0xbf44f369	-0.76933914
20	0x3ee0408e	0.4379925
21	0x3efcf965	0.49409023
22	0x3db8a8fe	0.09016608
23	0xba51e000	-0.0008006096
24	0x3f2828e8	0.6568742
25	0xbf2269ca	-0.6344267
26	0x3f274cf3	0.6535179
27	0x3f72ae57	0.9479727
28	0x3ea317c2	0.31854063
29	0x3ec06ca6	0.37582892
30	0xbf10fe82	-0.5663835
31	0xbefca628	-0.49345517
32	0x3f6a1ecb	0.91453236
33	0xbf7e768e	-0.9939965
34	0xbf6464a4	-0.89216065
35	0x3f57f2c6	0.8435482
36	0x3f245e8a	0.64206755
37	0x3f3fe234	0.74954534
38	0xbf0d6c94	-0.552438
39	0x3f3a1241	0.72684103
40	0xbf04555c	-0.5169275
41	0xbf0b3bab	-0.5438792
42	0xbefcbecc	-0.49364316
43	0x3f20ee25	0.6286338
44	0xbee1a124	-0.44068253
45	0xbf2e53c1	-0.6809655
46	0x3e13c83d	0.14431854
47	0x3b8210ba	0.003969279
48	0x3f5e409c	0.86817336
49	0x3f756ea8	0.95871973
50	0xbf076fd2	-0.52905
51	0xbf701306	-0.9377903
52	0x3d9ed8eb	0.077562176
53	0xbefda864	-0.49542534
54	0x3f4853ef	0.7825307
55	0xbee57d6c	-0.44822252
56	0xbf6d4602	-0.9268495
57	0x3f534083	0.8252031
58	0xbf5e4cb4	-0.8683579
59	0xbf6bcb1c	-0.92106795
60	0xbf1b861c	-0.6075151
61	0x3e8d31db	0.275771
62	0xbea3fe04	-0.32029736
63	0x3ebba068	0.36645818
64	0x3e9fad5f	0.3118696
65	0x3f7351b9	0.95046574
66	0xbf5ffd0f	-0.8749551
67	0xbe499943	-0.19687371
68	0x3e520090	0.20508027
69	0xbf60bc0b	-0.8778693
70	0xbf211960	-0.62929344
71	0xbe6946e0	-0.22780943
72	0xbd416d00	-0.04722309
73	0x3f408173	0.75197524
74	0x3f7a6aee	0.9781941
75	0x3f0587f9	0.521606
76	0xbf1027b5	-0.5631059
77	0x3e3edc4b	0.18638723
78	0xbdd51810	-0.1040498
79	0x3f487da3	0.78316706
80	0x3e940ea8	0.28917432
81	0xbe7a3430	-0.2443397
82	0xbf630e11	-0.8869334
83	0x3f42f2af	0.76151556
84	0xbd748a60	-0.059702277
85	0xbbd8c000	-0.006614685
86	0x3e4bddd4	0.1990884
87	0xbf1dca70	-0.6163702
88	0xbefda6fe	-0.49541467
89	0xbf55758c	-0.8338249
90	0x3e28ea49	0.16495623
91	0xbf3c1d22	-0.73481953
92	0x3f0333ca	0.512509
93	0xbf6efdd8	-0.93356085
94	0xbcef6740	-0.029224038
95	0x3f4e7b89	0.8065725
96	0xbf6b761e	-0.9197711
97	0xbe3f03d8	-0.1865381
98	0x3ec77ead	0.38963833
99	0x3e6d62df	0.23182248
100	0x3f7acd3d	0.9796942
101	0xbf1781fe	-0.5918273
102	0x3f0aa292	0.5415431
103	0xbf32d66c	-0.6985843
104	0x3e4192cf	0.1890366
105	0xbe60b4a6	-0.21943912
106	0x3de165a7	0.11005717
107	0x3ef956c5	0.48699012
108	0xbe47d198	-0.19513547
109	0x3f2e0aca	0.6798521
110	0xbef3dd88	-0.47629952
111	0x3d4e916d	0.050431658
112	0x3e8010fb	0.25012955
113	0x3defcad6	0.1170861
114	0x3ec0a496	0.3762557
115	0xbe0e039c	-0.13868564
116	0xbeb1fdd0	-0.34763956
117	0xbebfa2c6	-0.37428874
118	0xbe95955e	-0.2921552
119	0x3f03b518	0.514482
120	0x3e1ff70a	0.15621582
121	0x3d0d360e	0.03447538
122	0xbf5c5db3	-0.86080474
123	0xbf206442	-0.6265298
124	0xbdeb7f50	-0.11498892
125	0x3f0288f7	0.5099024
126	0xbe09e099	-0.13464583
127	0x3e1da889	0.15396322
128	0xbe6401f3	-0.22266369
129	0xbed98dc4	-0.4249097
130	0x3e75ccda	0.24003926
131	0x3e75c1e6	0.23999748
132	0x3e8fcb10	0.28084612
133	0x3eff26be	0.49834245
134	0xbf37e5e3	-0.71835154
135	0x3f56b51b	0.83870095
136	0x3e95e049	0.29272678
137	0xbf077d13	-0.52925223
138	0xbf264fc8	-0.64965487
139	0xbde65c70	-0.112481
140	0xbf2e395e	-0.68056285
141	0xbe71aaa0	-0.23600245
142	0xbf6ea1b0	-0.93215466
143	0x3d374882	0.044746883
144	0x3f325c67	0.69672245
145	0xbe991402	-0.29898077
146	0xbf513e08	-0.8173528
147	0x3f46bec4	0.77634835
148	0xbe95766c	-0.2919191
149	0xbeca2318	-0.394799
150	0xbe22586a	-0.1585404
151	0xbf0b4178	-0.5439677
152	0xbf80a42b	-1.00501
153	0xbeaa2f6c	-0.33239305
154	0x3ebf26b9	0.3733423
155	0x3edcf2df	0.43154046
156	0xbe48945d	-0.19587846
157	0xbf4f923f	-0.8108253
158	0xbd357eec	-0.044310495
159	0x3f5f8550	0.87312794
160	0xbe876bb4	-0.26449358
161	0xbed8635c	-0.42263305
162	0x3e8bf9de	0.2733907
163	0x3f0da11f	0.55323976
164	0xbe2cf470	-0.1689012
165	0x3f469134	0.7756531
166	0xbf404912	-0.75111496
167	0x3ef46bcc	0.47738492
168	0xbe9b1c2e	-0.30294937
169	0x3f661b6b	0.89885587
170	0x3e8ef461	0.2792082
171	0x3cd597c6	0.026073348
172	0x3f1cca73	0.61246413
173	0x3f13a40c	0.5767219
174	0xbe8eabb8	-0.27865386
175	0xbf6a5850	-0.91541004
176	0x3e93ca01	0.28865054
177	0x3f3ba944	0.73305154
178	0x3f71c693	0.94443625
179	0x38ffe30a	0.00012201637
180	0x3e8e0641	0.27739146
181	0xbf1839a8	-0.59462976
182	0x3e0bffb3	0.1367176
183	0x3ef9a6ab	0.4875997
184	0x3f1ed78a	0.62047637
185	0xbef790b7	-0.48352596
186	0xbe2b7654	-0.16744357
187	0xbf7c9224	-0.9866049
188	0x3e30d403	0.17268376
189	0x3ebc9b03	0.36837015
190	0x3f4010e0	0.7502575
191	0x3f732497	0.94977707
192	0x3f32234c	0.6958511
193	0xbf279e40	-0.65475845
194	0x3f43ff3d	0.7656134
195	0xbb9e3d00	-0.004829049
196	0x3dc6070a	0.09669311
197	0xbf29fd54	-0.66402173
198	0xbf39825a	-0.72464526
199	0x3f6f7d00	0.9355011
200	0xbf417f10	-0.75584507
201	0xbec15500	-0.37760162
202	0xbe63b3bf	-0.22236536
203	0xbf524240	-0.8213234
204	0xbda99492	-0.08280291
205	0xbf6e4e86	-0.9308857
206	0x3e4c5eeb	0.19958083
207	0xbf1c507a	-0.610603
208	0x3f45df4e	0.7729386
209	0xbd05e3c0	-0.032687902
210	0x3ede8984	0.4346429
211	0xbf59b88d	-0.8504723
212	0x3f0e8b61	0.55681425
213	0x3e999dbb	0.3000315
214	0xbf33c5aa	-0.70223486
215	0x3eecf07f	0.46277234
216	0xbe8378df	-0.25678155
217	0xbf6ecbee	-0.9327992
218	0x3f46a4e7	0.7759537
219	0xbf01a5a2	-0.5064336
220	0x3ecf710d	0.40515938
221	0x3e9c36d5	0.30510584
222	0x3e3c33b2	0.18379095
223	0xbef3c4a6	-0.47610968
224	0x3ea4fee0	0.32225704
225	0xbf23ae18	-0.6393752
226	0x3f56d02b	0.8391139
227	0xbf7e015e	-0.99220836
228	0x3edc3485	0.4300882
229	0xbf47d99c	-0.7806642
230	0x3e3661e9	0.17810787
231	0x3f5fac91	0.8737269
232	0x3ec46157	0.38355514
233	0xbf69e728	-0.9136834
234	0x3f23e205	0.64016753
235	0x3e569b4f	0.20957683
236	0xbee3354f	-0.4437661
237	0x3f5b4968	0.85658884
238	0xbdcbff80	-0.09960842
239	0x3e10170d	0.14071293
240	0x3e9c9ae4	0.30586922
241	0xbe145f48	-0.14489472
242	0xbf2758ca	-0.65369856
243	0xbe235500	-0.15950394
244	0xbc9c91ee	-0.019112553
245	0xbf45c5f7	-0.77255195
246	0x3e932df1	0.28745988
247	0xbee54378	-0.44778037
248	0xbee3c2cc	-0.44484556
249	0x3e3a1ccb	0.18175046
250	0x3df5fc4e	0.12011014
251	0x3f48a170	0.78371334
252	0xbf5686a7	-0.83799213
253	0x3e314b5c	0.17313904
254	0x3e95aa00	0.29231262
255	0x3f1409a9	0.5782724

linear2.weight f4 [4, 256]
0	0x3d2f7b32	0.042842098
1	0xbccb0b4e	-0.024785664
2	0x3d04bc3a	0.03240607
3	0x3cd648ff	0.026157854
4	0xbcea93b3	-0.028634882
5	0x3ce6542c	0.028116308
6	0xbc6ea94e	-0.014566733
7	0x3cfe7c10	0.031065017
8	0xbd1f5a7c	-0.038904652
9	0xbd18b1c0	-0.03727889
10	0xbcb001f4	-0.021485306
11	0x3cb8247f	0.02247834
12	0x3cb573e4	0.022149988
13	0xbc2b8cdd	-0.010470596
14	0xbcb7c0fc	-0.02243089
15	0xbb62dc3f	-0.003461614
16	0x3d044da8	0.03230062
17	0xbd6da41a	-0.058017828
18	0xbd1be1e1	-0.03805721
19	0xbc0af384	-0.00848091
20	0x3d6572d3	0.056017708
21	0x3bab4b8f	0.005227513
22	0x3d518312	0.05115039
23	0x3d7f767e	0.062368862
24	0xbc8b9204	-0.0170374
25	0xbcfe1c30	-0.0310193
26	0xbcd94f96	-0.026527207
27	0x3cc5d47b	0.02414917
28	0x3a711644	0.0009196738
29	0x3cfad796	0.030620378
30	0xbc738a0d	-0.014864457
31	0xbcb8c510	-0.022554904
32	0xb952c71b	-0.00020101333
33	0x3d1e8ec0	0.038710356
34	0x3d01fc88	0.031734973
35	0xbd33575b	-0.04378448
36	0x3c0908ab	0.008363883
37	0xbd00a32f	-0.031405624
38	0xbd5bece1	-0.053692702
39	0x3c42d8c0	0.011892498
40	0xbc4d8c50	-0.01254566
41	0xbc713813	-0.014722842
42	0xbc9fa924	-0.019489832
43	0x3d38cf41	0.045119528
44	0x3d49e28c	0.049288318
45	0xbcd53052	-0.026024017
46	0x3d40f7e8	0.04711142
47	0xbc0d7a7f	-0.008635162
48	0x3d12a5ea	0.03580276
49	0x3d4d075b	0.050055843
50	0xbc5c5d10	-0.013449922
51	0x3ce02cdc	0.02736514
52	0xbd6717ef	-0.05641931
53	0x3d7c7506	0.06163504
54	0xbc4c1ee2	-0.012458535
55	0x3b124aa0	0.0022322312
56	0xbbe19070	-0.0068836734
57	0xbd48beb1	-0.049009982
58	0x3d7798ec	0.060448572
59	0x3d801a80	0.062550545
60	0x3ca5c078	0.020233378
61	0xbccb8685	-0.024844417
62	0x3d6a0b40	0.057139635
63	0xbca09e16	-0.019606631
64	0x3cb3af67	0.021934224
65	0xbc420e1f	-0.011844187
66	0xbc8d1714	-0.017222919
67	0x3bd553d3	0.0065102368
68	0xbd1fc74c	-0.039008424
69	0xbcf45d52	-0.029829655
70	0x3d0d8a70	0.034555852
71	0x3cf9f3f8	0.030511841
72	0xbd579c02	-0.052639015
73	0xbd5a858b	-0.053350013
74	0x3d82cbce	0.06386529
75	0x3c996b65	0.018727968
76	0xbd284cc5	-0.041088838
77	0x3a288827	0.00064289797
78	0xbc525c18	-0.01283934
79	0xbca6ec9d	-0.020376498
80	0xbd6bb7f4	-0.05754848
81	0xbccce94c	-0.025013588
82	0xbbc5996e	-0.006030253
83	0xbb29471a	-0.0025829733
84	0x3d6b0b1a	0.057383634
85	0xbbb69d10	-0.0055729225
86	0x3d562637	0.05228254
87	0xbd31270b	-0.043250125
88	0xbcf2104d	-0.029548788
89	0x3d2512f4	0.04030128
90	0x3d6f658f	0.058446463
91	0x3c698178	0.014252059
92	0x3d6af6d0	0.057364285
93	0xbd20db68	-0.039271742
94	0x3d50fcfa	0.051022507
95	0xbc96e86c	-0.018421374
96	0xbcf076a0	-0.02935344
97	0x3d0b98e6	0.034081362
98	0x3c8e6de0	0.017386377
99	0xbce086ee	-0.02740809
100	0xbd273b0e	-0.040827803
101	0xbc95bae0	-0.018277586
102	0x3d6776ff	0.056509968
103	0x3cfdba18	0.030972525
104	0x3d81b9f0	0.06334293
105	0xbd146bc7	-0.036235597
106	0xbc198b4b	-0.009371589
107	0xbcbd456d	-0.023104394
108	0x3d6ff374	0.058581784
109	0xba994dea	-0.0011696194
110	0x3cb9efac	0.022697292
111	0x3d0e776c	0.03478186
112	0xbd1ad578	-0.037801236
113	0xbd6682ea	-0.056277193
114	0x3ca42abd	0.02003991
115	0xbcc4632a	-0.023973066
116	0x3ce0783c	0.027401082
117	0x3d42f2d2	0.047594853
118	0x3d36f9aa	0.044671692
119	0x3d203c7d	0.039120186
120	0xbc4418c6	-0.011968797
121	0x3d62e1cc	0.055391118
122	0xbbc6b7fe	-0.006064414
123	0x3d3bb46e	0.045826368
124	0xbb931600	-0.0044887066
125	0xbd0dd8ff	-0.03463077
126	0xbaafb4a7	-0.0013405279
127	0xbd5d7adb	-0.054072242
128	0x3bd96325	0.0066341334
129	0x3c6a0920	0.014284402
130	0x3d6436b5	0.055716235
131	0xbce8c4fb	-0.02841424
132	0x3d1d7de9	0.038450155
133	0x3d058b2f	0.03260344
134	0xbcebfc34	-0.028806783
135	0x3cfe422a	0.031037409
136	0xbd06d8bf	-0.03292155
137	0xbd24a397	-0.040195074
138	0xbd68160e	-0.056661658
139	0xbc2e32d8	-0.010632239
140	0x3d292828	0.04129806
141	0x3d796f58	0.0608972
142	0xbd2270a0	-0.03965819
143	0x3c87c91e	0.016575392
144	0xbd66481d	-0.056221116
145	0xbcb7a33e	-0.022416707
146	0xbd464338	-0.04840395
147	0xbd5a9a72	-0.053369947
148	0xbbff2630	-0.0077865347
149	0x3c5876e0	0.013211936
150	0x3c8f770d	0.017512823
151	0xbc5d7f40	-0.013519108
152	0x3d28571b	0.041098695
153	0x3c0af820	0.008482009
154	0xbc5eebaf	-0.013605996
155	0xbc9a0e3a	-0.018805612
156	0x3c96754b	0.018366477
157	0x3d27b1ce	0.040941052
158	0xbcc9ecc3	-0.02464903
159	0x3c6ad158	0.014332138
160	0x3d3a6e60	0.045515418
161	0x3ce3c264	0.027802654
162	0x3c24b901	0.010053874
163	0x3c66a4e5	0.0140774
164	0xbd76c306	-0.060244583
165	0x3c0995d9	0.008397543
166	0xbc5344e8	-0.0128948465
167	0x3c210fb1	0.009830401
168	0xbb329194	-0.0027247416
169	0x3d6d51cf	0.057939347
170	0x3d14be5d	0.036314357
171	0xbd45a10f	-0.0482493
172	0xbd451dd7	-0.04812416
173	0xbd4ce81d	-0.050026048
174	0xbcd10dfc	-0.025519364
175	0x3b37649d	0.0027983554
176	0x3d6d81fd	0.057985295
177	0xbd29a1ee	-0.041414194
178	0x3cf27ac3	0.029599553
179	0xbcb3445f	-0.021883188
180	0x3d3e56b4	0.046469405
181	0xbcfac250	-0.030610234
182	0x3ba5d3d3	0.005060652
183	0xbd3ca77b	-0.04605816
184	0x3b1dfa96	0.002410566
185	0x3c6be036	0.014396718
186	0xbcc3945b	-0.023874452
187	0x3c61b838	0.013776831
188	0x3b91ba41	0.004447252
189	0x3b9f4444	0.004860433
190	0x3d580ff9	0.052749608
191	0xbd31b83e	-0.043388598
192	0xbce1aa70	-0.027547091
193	0xbd019548	-0.031636506
194	0xbc9fd265	-0.019509504
195	0xbd3b77c4	-0.045768514
196	0xbc17bc24	-0.009261165
197	0xbc6da4d0	-0.014504626
198	0xbd6e9a68	-0.058252722
199	0x3b6696c2	0.0035185074
200	0xbc381080	-0.011234403
201	0x3b5817a0	0.0032973066
202	0x3d03021d	0.031984437
203	0x3d54a440	0.051914454
204	0xbd64e09c	-0.055878267
205	0xbd767800	-0.060173035
206	0x3d6bef40	0.057601213
207	0xbb477f20	-0.0030440763
208	0xbc67f9eb	-0.014158706
209	0xbd071f44	-0.0329888
210	0x3ce34586	0.027743112
211	0xbd5a77a8	-0.05333677
212	0xbd3a73c3	-0.045520555
213	0x3cbe84d9	0.023256706
214	0x3d04f6b6	0.032461844
215	0xbd5c2826	-0.053749226
216	0x3d851115	0.06497399
217	0xbbd1665c	-0.006390376
218	0xbc23eba1	-0.010004909
219	0xbc4d5d1b	-0.012534405
220	0x3c9167d5	0.017749706
221	0xbc542dbc	-0.012950357
222	0x3c7891bc	0.0151714645
223	0xbc85450e	-0.01626828
224	0xbc558c49	-0.013033935
225	0xbcff7fb0	-0.031188816
226	0x3cc4783b	0.023983112
227	0xbc433430	-0.011914298
228	0xbd4aa92a	-0.049477734
229	0x3d6d9238	0.058000773
230	0x3bbe583f	0.0058088596
231	0xbd481aaf	-0.048853572
232	0x3d60e500	0.05490589
233	0xbcdea7b4	-0.027179576
234	0xbc603241	-0.013683856
235	0xbce88f07	-0.028388513
236	0xbc0d2b79	-0.008616322
237	0xbce3ce74	-0.027808405
238	0xbd00a08e	-0.031403117
239	0x3d00105d	0.031265605
240	0x3d6d7e99	0.05798206
241	0xbccda453	-0.02510277
242	0xbc4e700f	-0.012599959
243	0xbcb0c29c	-0.021577172
244	0xbd1075bf	-0.03526854
245	0x3d1be5a5	0.038060803
246	0xbd6e9b3c	-0.05825351
247	0xbd4850e0	-0.048905253
248	0xbcfa8c4a	-0.030584473
249	0x3ce7ec9e	0.02831107
250	0xbd51d6dc	-0.051230296
251	0xbc6e83b1	-0.014557765
252	0xbd644d2e	-0.055737667
253	0x3d2424a4	0.040074006
254	0xbd6c35d2	-0.057668515
255	0x3d5c2c36	0.0537531

linear2.bias f4 [4]
0	0x3d3b8531	0.045781318
1	0xbd832c02	-0.06404878
2	0xbc0c3b29	-0.008559027
3	0x3bf17cee	0.007369629
